cosi-159-01/save/mnist.pth (torch, 89851 bytes, 8 tensors)

conv1.weight f4 [10, 1, 5, 5]
000000 83 ec 98 bc da 88 53 be ab 91 02 bf 6f 77 0b bf
       -0.018667465 -0.20657673 -0.5100352 -0.54479116
000010 3b 32 e2 be 38 51 3d 3e 08 e0 52 be be d3 ce be
       -0.44178948 0.18488014 -0.20593274 -0.4039592
000020 af a9 a7 bd 3a 21 1b 3e b3 f1 77 3e 2c 9b 0f 3f
       -0.081866615 0.15149394 0.24213295 0.5609615
000030 dd cb 15 3f 82 07 27 3f 88 aa 7e 3e d4 65 a2 bd
       0.58514196 0.6524583 0.2486974 -0.079295784
000040 24 49 1a 3e c0 0f 41 3e 08 75 3c bd f0 b3 fc 3d
       0.15066963 0.18853664 -0.046010047 0.12339008
000050 5e 5f 80 be 18 83 41 be a1 2d 08 bb 6a 3e 89 be
       -0.2507276 -0.18897665 -0.002077915 -0.2680543
000060 2c 47 be bd a3 5f 49 be c9 10 db 3c 4a ea 40 be
       -0.09290919 -0.19665389 0.026741402 -0.18839374
000070 bf 4c ba be 95 fe 15 3c 10 4b 93 bd c3 1c fe 3d
       -0.36386678 0.009154935 -0.071920514 0.124078296
000080 4a ef 4d 3e fb 59 ae 3e be 6a 10 3f d9 4c f5 3d
       0.20110813 0.34053025 0.56412876 0.11977548
000090 6c fc 1e 3e 2b c7 35 3e 22 aa 1a 3f 11 7d 41 3e
       0.15525979 0.17751758 0.6041585 0.18895365
0000a0 4b 7b cb 3c 86 11 7e 3d 32 09 c6 bc 9a 96 0f be
       0.024839064 0.06202843 -0.024174307 -0.14022294
0000b0 c4 19 e7 be 3d 28 5c be 69 8f 2e be 6d 2b 81 be
       -0.45136845 -0.21499725 -0.17046894 -0.25228444
0000c0 55 d6 d3 be d6 03 ce be 44 80 35 3e af 6f b0 3e
       -0.4137446 -0.40237302 0.1772471 0.34460208
0000d0 31 92 7f 3c 0a f5 9a 3d 0f ea ec bd fc b1 93 3e
       0.01559882 0.07566269 -0.11568081 0.2884673
0000e0 b3 93 a5 3e 3d a6 0f 3d dd a2 a0 be 7f d1 c9 be
       0.32339248 0.035070647 -0.31374255 -0.39417645
0000f0 05 79 d2 3e bf f9 3b be 98 57 95 be bc 80 ab be
       0.41107956 -0.1835699 -0.2916839 -0.33496654
000100 66 b4 9b bc fb 30 10 be 84 ed b1 be e2 1d 4e be
       -0.01900692 -0.14081185 -0.34751523 -0.20128587
000110 fb b0 6e 3d aa 89 cf 3c a7 58 70 be fc 68 fc bd
       0.05827425 0.025334198 -0.23471318 -0.12324712
000120 b4 0b 89 be bb 63 31 3d 5e 50 6e bd 48 39 bb 3d
       -0.2676674 0.043308 -0.058182113 0.09141785
000130 18 e6 34 3d 02 8d 4a be 80 73 2f be bf 0b e3 bd
       0.044164747 -0.19780353 -0.17133904 -0.11086225
000140 b4 21 71 b8 c3 b7 91 3e aa 5d bf 3d 73 ba da be
       -5.7490266e-05 0.28460512 0.09344037 -0.42720374
000150 13 a1 15 bf f3 e6 0d be 79 6b fe 3e 5b 78 de 3e
       -0.58448905 -0.13857631 0.4969137 0.434512
000160 53 53 07 be 2f c8 e7 be ba 61 3c be 07 97 18 bb
       -0.1321538 -0.45269915 -0.18396655 -0.0023283379
000170 04 63 34 3f 9e ca c6 3e bf 99 bb bd 69 cf c4 bd
       0.70463586 0.3882646 -0.09160184 -0.09609873
000180 98 d7 29 be 39 b6 d2 3d 50 11 47 3e 6e 8a 53 3e
       -0.16586149 0.102886625 0.19440198 0.20658275
000190 39 a8 78 3e 60 6b da 3d fb 91 2b be 8f 65 85 be
       0.24282922 0.106650114 -0.16754906 -0.26054046
0001a0 45 61 e9 3d 2d 2f 30 3d d6 7f 23 3e d3 05 3f be
       0.11395506 0.04301374 0.15966734 -0.18654566
0001b0 be ef 03 3d cd 9c 34 3e 4a 3c 9f 3e 84 b1 bb 3c
       0.032211058 0.1763794 0.31100684 0.022911794
0001c0 9a 17 8a be f5 c1 80 be de a6 6f 3e 56 6d ac 3e
       -0.26971132 -0.25147977 0.23403499 0.33677167
0001d0 5f a6 3e 3d db b6 82 be 6b c5 9c be ec d6 b9 3e
       0.046545383 -0.25530133 -0.30619368 0.36296785
0001e0 86 94 41 3d 02 81 54 be b2 41 ae be 27 72 d1 bd
       0.047260784 -0.20752338 -0.34034497 -0.10226851
0001f0 04 3b b7 3e 29 1a ea be 18 5a a4 be 82 9a 84 be
       0.35787213 -0.45723084 -0.32099986 -0.2589913
000200 91 de 75 be 1f 53 98 bd a7 81 06 3e 52 68 a1 3d
       -0.24010684 -0.07437729 0.13135396 0.07881226
000210 58 0c 73 be e1 d0 9d bd fb 2c a1 be 14 37 00 bd
       -0.23735178 -0.07705856 -0.3147963 -0.031302527
000220 c6 a9 a8 3d cf d3 1e 3e 2b 86 87 bd 23 b0 52 be
       0.08235507 0.15510486 -0.066173874 -0.20575003
000230 d6 e5 09 3e d9 0b a3 bc 44 29 d1 3d f4 23 78 3e
       0.13466582 -0.01990311 0.10212949 0.24232465
000240 7b 76 04 be 5c 31 94 3e 7e aa b8 bd bc 21 d6 3d
       -0.12935822 0.28943908 -0.09016894 0.10455653
000250 ed 15 6d 3e 72 8f 4f 3e 3e 03 42 be ab 50 6e bd
       0.23152895 0.20269564 -0.1894655 -0.0581824
000260 e5 af 1f be b4 58 86 be 16 6a e5 bd de 17 7c 3e
       -0.15594442 -0.2623955 -0.11201875 0.2461848
000270 cd b4 00 bb 79 d9 6c 3e 9d de a1 3e cf 5a b0 3e
       -0.0019639016 0.23129834 0.31615153 0.3444428
000280 00 06 6c 3d f9 61 1e 3e 44 f1 f6 bd 31 95 45 bd
       0.05762291 0.15467061 -0.120577365 -0.048237983
000290 81 59 3d be e1 76 5a bd ed 8f ad 3d c2 a5 b1 3d
       -0.18491174 -0.053336028 0.08474717 0.08674194
0002a0 13 f0 00 bd 44 f8 d5 3c 74 f3 62 be 99 82 dd 3d
       -0.031478953 0.026119359 -0.22163182 0.10815925
0002b0 6d fa 62 bd bc 12 32 bd ab e4 a3 3c 42 a7 10 bf
       -0.055414606 -0.043474898 0.020006498 -0.56505215
0002c0 47 f5 b6 be 28 fb a7 be 39 4c 5b 3e dc d0 07 3f
       -0.35734007 -0.32808805 0.21415795 0.5305307
0002d0 13 32 19 bf 71 3a 48 be f1 cf 66 3e 4e c2 fe 3e
       -0.5984203 -0.19553544 0.22540261 0.49757618
0002e0 6a 20 62 3e 44 ff b4 be 29 95 51 3d f7 94 b3 3e
       0.22082677 -0.35351002 0.05116764 0.3507459
0002f0 a7 f3 96 3e f1 a7 97 bd 4a 61 32 be 26 61 f0 3d
       0.29482767 -0.07405079 -0.17419925 0.117372796
000300 8a fd 8e 3d 6b 1c 56 3d 4a 37 a0 3d 16 a2 ce 3d
       0.069819525 0.052273195 0.078230456 0.10089509
000310 e2 31 00 be c2 e3 3b bc e8 d4 3a 3e 46 ef 2f be
       -0.12519029 -0.011467876 0.1824528 -0.1718112
000320 e8 51 6a 3e fe 5c 8f be 15 3f 61 be 7c 6b 09 be
       0.22882807 -0.28000635 -0.2199672 -0.13419908
000330 35 f5 37 bd 45 77 71 3e 8c 61 82 bd 83 17 3c be
       -0.044911582 0.23580654 -0.06366262 -0.18368344
000340 db 90 43 be 90 26 a2 3d 61 48 60 3e dd d9 28 3d
       -0.19098227 0.079175115 0.2190261 0.041223396
000350 87 da a0 be 73 38 3b bd 8b f1 50 be d8 87 49 3e
       -0.31416723 -0.04570813 -0.20404641 0.19680727
000360 af 54 80 bd 7b 3d 9f bd 3d 36 60 be a6 fd ff bc
       -0.06266152 -0.07775398 -0.2189569 -0.031248879
000370 4a d1 8d 3e 67 10 da bd ce 36 f0 3c cf 56 60 be
       0.27698737 -0.1064766 0.029323008 -0.21908115
000380 9b 16 76 3d 83 21 b2 3d e9 5d e0 3d 78 6b 40 3e
       0.060080152 0.08697798 0.10955412 0.18790996
000390 51 7d bc 3d 96 e3 98 3e f8 23 48 be fc 0a ce 3d
       0.0920359 0.29861134 -0.19544971 0.10060689
0003a0 b4 ae e8 3e 71 e9 0c 3e f6 45 5e 3e d8 44 da be
       0.45445788 0.13760926 0.21706375 -0.4263065
0003b0 68 8f 05 be 56 ff be 3d 1b 7d 90 3e 36 51 f8 3e
       -0.13042986 0.09326045 0.28220448 0.4849946
0003c0 ae ab 01 bf 52 67 f2 be 3e 6a ef be 9f 33 61 be
       -0.5065259 -0.47344452 -0.46760744 -0.21992348
0003d0 64 88 3a be c1 4c 2a be 95 3b b1 be c6 da db be
       -0.18216091 -0.16630842 -0.3461577 -0.42940348
0003e0 ca 56 0f bf 9a a1 2a be
       -0.55991805 -0.16663209

conv1.bias f4 [10]
000000 33 56 e9 bd f9 6d f2 bd 09 12 a9 bc 15 80 b2 be
       -0.11393394 -0.11837382 -0.020638483 -0.34863344
000010 62 14 e2 bc 3a 3e 45 be 75 07 3f bd 61 b6 25 be
       -0.02759761 -0.19262019 -0.04663797 -0.16182853
000020 d4 e5 0c be 20 c7 e2 bd
       -0.13759547 -0.11073136

conv2.weight f4 [20, 10, 5, 5]
000000 ec 95 32 3e 59 5e 98 3d 18 61 09 3e cf 16 d2 bc
       0.17440003 0.074398704 0.13415945 -0.025645642
000010 ef c3 84 3d 45 5a 6e bb 3d 0a 71 3d d4 47 0f 3e
       0.06482684 -0.0036369723 0.058847655 0.13992244
000020 70 c3 52 3d 59 e6 85 3c 2a 28 cb 3d 18 a2 9d bd
       0.051455915 0.01634519 0.0991977 -0.076969326
000030 dc 60 b2 bd 7b 27 dd bc 6a 30 bb bd ba 95 d2 3d
       -0.08709881 -0.026996365 -0.091400936 0.10282464
000040 4f db 4f 3d d2 b5 69 3d 73 46 43 bc d7 98 cf bd
       0.05074626 0.057058163 -0.011918652 -0.10136574
000050 52 97 7a 3d 31 bb ed bd 8b 8c 21 be 59 71 b6 bd
       0.061179467 -0.116079696 -0.15776269 -0.08908338
000060 c0 89 63 bd b5 4b 5a 3e 22 e4 01 3e 9f db a5 3a
       -0.05555129 0.21317942 0.12684682 0.0012653953
000070 e8 45 32 bc 15 a0 c3 3c a6 f1 c0 3d 32 7b 13 3e
       -0.010880925 0.023880044 0.09421091 0.14402464
000080 4f fb 90 3d bc 50 fa 3d 77 f6 b7 3d 90 1d a4 bb
       0.07079183 0.1222243 0.08982556 -0.005008407
000090 81 ff 3c bd a7 76 ab bd 2e b3 b8 bc 5d 8c b7 bd
       -0.046142105 -0.083722405 -0.022546377 -0.08962319
0000a0 b9 7f eb bc d4 03 2c bc 00 34 9b bd 86 ab 0e bc
       -0.028747426 -0.01049896 -0.075782776 -0.008707887
0000b0 a3 aa 05 bd cd a6 b3 3b 4d 89 16 bc f0 cd da bd
       -0.032633435 0.0054825307 -0.0091880085 -0.10683811
0000c0 cd 85 a5 bd 52 9d 28 be a7 09 77 bc 2d fe 9a 3c
       -0.08082161 -0.16466263 -0.015077985 0.018920029
0000d0 a9 b2 a0 3d 2a e8 79 3d dd fd 84 3d d7 27 b1 3d
       0.07846577 0.061012425 0.06493733 0.08650177
0000e0 a5 aa 84 3d a6 33 83 b9 70 93 9c 3d 13 52 74 3d
       0.0647786 -0.00025024748 0.07645309 0.059648585
0000f0 89 39 98 3d d7 2e 90 bd 64 bf 0e 3c 40 dd 6d bd
       0.07432849 -0.07040184 0.008712623 -0.05807233
000100 71 c3 48 bd 16 7f 2f bd 5c f4 88 bd 34 f7 bf bd
       -0.049014512 -0.042845808 -0.06687233 -0.09373322
000110 cf 83 e9 bd 72 99 b6 bd dc 34 15 3e 97 87 32 bd
       -0.114020936 -0.08915986 0.14570946 -0.04358634
000120 ed 38 01 be ed 1d e9 bd 9c 1f e6 bd 1f af 18 3d
       -0.12619372 -0.11382661 -0.11236498 0.037276383
000130 1d 0f f2 3d 34 0e 98 bc 66 44 26 3c b9 9a 95 3c
       0.11819289 -0.01856146 0.010148143 0.018262254
000140 94 8f 2b 3d 7e 4d 70 bc 92 02 a3 bd 54 a2 1c bc
       0.041884974 -0.014666913 -0.079594746 -0.009560186
000150 01 cb 8e bd de 8c c6 3d 9c 04 93 bd 1f e5 32 3c
       -0.06972314 0.09694837 -0.071786135 0.010918885
000160 ed 10 2e bd f8 ca d9 3c 00 97 b0 bc 7f 6d de bc
       -0.04249661 0.02658604 -0.021556377 -0.027151821
000170 a4 01 8e bd 78 37 29 3d 34 e1 bd bc 03 61 a8 bd
       -0.06933907 0.041312665 -0.023178674 -0.082216285
000180 88 77 1f be 2f 6a c1 bb 71 1c d1 bb 84 1b 5b ba
       -0.15572941 -0.0059025506 -0.0063815643 -0.0008358287
000190 1d 0e 44 3d c1 a6 8a bd bf d7 9c bc b4 67 0f bd
       0.047865022 -0.06770087 -0.019145845 -0.03501101
0001a0 df 48 c9 3c 6a cd 97 3d 9e 0b 3c bd 8d 4d 91 bd
       0.02457088 0.074122265 -0.045909517 -0.0709487
0001b0 83 62 1a 3c 74 88 8f bd 9a f6 e3 3d f2 8f 1e be
       0.009422901 -0.07008448 0.1113102 -0.15484598
0001c0 6a 5e c7 bd 4a f3 ee bd 0d 20 23 bd 11 88 66 3c
       -0.09734805 -0.116674975 -0.039825488 0.014070527
0001d0 f9 3c ed bc de 11 c1 bd 83 01 15 be e3 69 09 be
       -0.028959738 -0.09427236 -0.14551358 -0.13419299
0001e0 9e d8 a0 3c cd c2 a2 bd a7 9c f6 bd 24 7e 9a bd
       0.019634541 -0.079473116 -0.12041598 -0.07543591
0001f0 ac f0 d0 bd 27 81 fb bb 2e 6d ec 3c d7 c8 f9 bc
       -0.102021545 -0.0076753083 0.028860655 -0.030491276
000200 bf 88 23 3d 65 cf fc 3c 40 ec 77 bd f6 ad c5 bd
       0.039925333 0.030860612 -0.06052804 -0.09652321
000210 39 5c 71 3c 8b 96 8b 3d 1d ab ad 3d 09 d3 af bd
       0.01473146 0.06815823 0.08479903 -0.08585174
000220 d8 4a 36 3b f2 fd b8 b9 f4 fc 92 3c 1b 43 32 3d
       0.0027815606 -0.0003528442 0.017942883 0.043521028
000230 0d 43 40 bd bd 2d 99 3d 69 35 c9 3c 6a db e5 3c
       -0.046938945 0.07479427 0.0245616 0.028058726
000240 34 0c 30 bd 99 83 57 bd 07 d2 8c bd d3 f5 ab 3c
       -0.042980388 -0.052615736 -0.06875997 0.020991242
000250 c4 51 61 bc 8e 8a ce bc ce 52 34 3d 22 e1 cc 3d
       -0.013752405 -0.025212552 0.04402428 0.10003878
000260 24 da f5 3c e9 f4 1c bc 11 5e cf bc 9b 26 af 3c
       0.030011244 -0.0095798755 -0.025313409 0.021380713
000270 e8 a1 6b 3c be 90 1b bc 8f 20 b8 3d c7 d8 ee 3c
       0.014381863 -0.009494958 0.08990585 0.029156102
000280 39 b0 b8 3c 8d b3 6b bc 83 e7 b2 3c 99 c7 8c 3b
       0.022544967 -0.01438607 0.021838909 0.004296255
000290 3c f0 ca 3b 0d 6c 8a 3d ef 22 ec bc 3e d4 87 bd
       0.006193189 0.0675889 -0.028825251 -0.06632279
0002a0 32 09 49 3d 4e da 10 3c 69 12 ac 3c 2f fc ab bb
       0.049081035 0.00884111 0.021004872 -0.0052485685
0002b0 88 67 98 bd 52 b6 ea bc 39 52 9f bc 8c 03 fd 3d
       -0.07441622 -0.02865139 -0.019448387 0.12354192
0002c0 26 b7 81 3d b0 18 34 3c cb c4 88 bc 29 d5 b0 bd
       0.06333761 0.010992214 -0.0166954 -0.08634407
0002d0 fa ca 0a bd 01 0e b5 bd 76 d4 f5 bb da 38 55 3c
       -0.03388498 -0.08840562 -0.007502134 0.013014043
0002e0 a9 41 a6 bd 5f 5e 3e be f8 77 31 be 09 f7 44 be
       -0.081179924 -0.18590687 -0.1733092 -0.19234861
0002f0 54 40 0e be 57 2d 7f be 4b b1 b6 bd 48 dd 68 be
       -0.13891727 -0.2491964 -0.08920535 -0.22740662
000300 58 38 36 be de 70 51 be b3 15 8a be 68 95 bd bd
       -0.17794931 -0.20453212 -0.2696968 -0.092570126
000310 90 1d 4c be df f6 38 be 5d 4a 17 be 5c de 83 be
       -0.19933152 -0.18062924 -0.14774461 -0.25755584
000320 42 c9 f6 bc 9e a1 06 bd 6e 2d b3 bd c9 3b 8f 3c
       -0.030125264 -0.032868974 -0.087488994 0.017484562
000330 de f9 8a 3c 06 8d 38 3c 3f b1 53 3c 12 f5 cc 3c
       0.01696485 0.011264091 0.012920677 0.025019202
000340 a4 78 91 bd e5 66 51 3d 78 c8 e3 3d c7 5d 8e bd
       -0.071030885 0.05112352 0.11122221 -0.0695148
000350 41 8f bc 3b c6 90 7d 3b 5f 4f 23 3d 7a e4 17 3e
       0.005754382 0.0038691028 0.039870616 0.1483325
000360 de 54 7f 3d 79 eb 48 bc ca d0 75 3c 64 bb 75 bd
       0.062336795 -0.012263172 0.0150033925 -0.059993163
000370 3a 26 b0 3d 16 1f 42 3d 46 8a 82 3d b4 a2 01 bc
       0.08601041 0.047392927 0.0637403 -0.007912327
000380 44 cb 46 3b 2f 59 4f bd e3 8c ba bc 3b a8 30 3d
       0.0030333558 -0.05062216 -0.022772258 0.043129187
000390 59 fe 18 bd 6a 22 70 3d 71 70 cf 3d b6 21 66 3e
       -0.03735194 0.05862657 0.10128868 0.22473797
0003a0 b1 15 20 3e 53 b0 fd 3d a4 c7 b7 3c 74 41 7b 3d
       0.15633275 0.12387147 0.022434063 0.061341718
0003b0 ff fe be 3d af 21 b2 3d 2d b8 8d 3d 1c 79 b1 3d
       0.093259804 0.08697831 0.06919894 0.08665678
0003c0 57 50 18 3d 66 85 ca bb 08 43 a8 3d 9d bb bc 3b
       0.037185993 -0.006180453 0.0821591 0.00575967
0003d0 d2 d5 d8 bc 14 4a 08 3d 3e 3b 45 3d ff a2 f6 3d
       -0.026469145 0.03327377 0.0481522 0.12042808
0003e0 f8 cc 91 3d ed 44 b6 3b 9e 8d 4c bd 7b 4a 07 be
       0.07119173 0.005562416 -0.049939744 -0.13212006
0003f0 89 b3 4f be 07 1d da bd b1 fa 9c bd 01 b3 2a bc
       -0.20283331 -0.10650068 -0.07665003 -0.010418654

conv2.bias f4 [20]
000000 cd 50 f2 bc bf 32 13 bd 0c 00 62 bc 38 b4 b0 bc
       -0.029579544 -0.035937067 -0.0137939565 -0.02157031
000010 8b 08 09 bd 38 ae f5 3c c6 54 8d bc 04 b3 a4 bd
       -0.033455413 0.0299903 -0.017252337 -0.08041957
000020 e3 31 97 bd 2a 43 1a bc d9 f8 5a 3d 5b 17 38 bc
       -0.07382562 -0.009415427 0.053459976 -0.011236037
000030 44 38 a0 bb 76 0f 30 3c bc 29 b7 bd be 68 16 3d
       -0.00488952 0.010745874 -0.08943507 0.036720984
000040 bf 5e 04 be 6d 22 84 3d d5 29 42 bd 1f 9d 95 bb
       -0.12926768 0.06451879 -0.047403175 -0.0045658494

fc1.weight f4 [50, 320]
000000 3d 26 21 3d cc 72 86 bd 57 95 b3 bd 2d c1 1d bd
       0.039343107 -0.065648645 -0.08768719 -0.038514305
000010 56 da dc bc dd be 44 3d dc 3f ca bd 0d 24 f0 bd
       -0.02695958 0.048033584 -0.098754615 -0.11725626
000020 ff ab 8a 3d a9 3c b9 3d 23 04 2f 3d 90 0b 29 3c
       0.06771087 0.09044773 0.042728554 0.010317698
000030 a3 b9 87 3d 9d cf a2 bb 00 5e cf 3c a5 93 07 3e
       0.06627204 -0.004968597 0.025313377 0.13239916
000040 79 76 15 be 54 78 36 be 62 bc 2c be ee 04 4c 3c
       -0.14595975 -0.17819339 -0.16868737 0.012452347
000050 5b 12 04 bd 2b b8 28 3d 3f d7 f3 bb f5 91 e1 3c
       -0.032244068 0.04119126 -0.007441431 0.027535418
000060 7a af cc 3d da f1 29 3e ca fe a0 39 b1 af 09 3d
       0.09994407 0.16596165 0.0003070741 0.033614818
000070 22 0c ef 3c c7 a1 8f 3d 58 09 9d 3d 37 87 5a bd
       0.02918059 0.070132785 0.07667798 -0.053351607
000080 0b 18 49 bd 95 72 22 3c 27 bb a4 3d a6 88 e9 3d
       -0.049095195 0.009915014 0.08043509 0.11403017
000090 36 bb f4 bc fe a6 20 bd 12 c1 d9 3c b9 51 14 3e
       -0.029874425 -0.039221756 0.02658132 0.144843
0000a0 5d dd 5f 3d 18 4a 97 bd 77 20 b3 3d 27 dd 96 bc
       0.054654468 -0.07387179 0.087464266 -0.018416
0000b0 e0 ff e1 3c 5b 28 45 bc 2f f7 0c bc 3c 23 f4 3b
       0.027587831 -0.012033547 -0.008603855 0.0074504893
0000c0 c1 35 9c 3d 63 81 c8 3c 3d d1 f4 bd ce 75 8e bd
       0.0762744 0.024475759 -0.119539715 -0.06956063
0000d0 e2 d7 bb 3c eb 3b dd bd ec 1a 96 bd 4e 49 83 bd
       0.02293009 -0.10802444 -0.07329354 -0.06410466
0000e0 9d e2 9b 3c 3a 1a c6 bc 80 4e 75 3d 93 9b 75 3d
       0.019028956 -0.024182428 0.059889317 0.05996282
0000f0 b8 30 88 3d c2 d8 6f bc 9c e5 d3 3d 27 b6 5b 3d
       0.06649917 -0.014639081 0.10346529 0.05364051
000100 18 8d cb 3d 7a c4 a4 3d 32 29 11 3e bd 81 26 3e
       0.09939021 0.080452874 0.14175871 0.16260429
000110 f7 a5 38 bd da 65 09 be a9 51 43 bd 8a 53 10 3d
       -0.04508015 -0.1341776 -0.0476853 0.03523592
000120 03 b1 9c 3d 9c 84 b3 3a 81 5f 3e be 28 23 90 bd
       0.0765095 0.0013696137 -0.1859112 -0.070379555
000130 00 bc 52 3d 2f fc 02 bd 81 45 e9 3b 3f 34 9c bd
       0.051448822 -0.031978782 0.007118881 -0.07627153
000140 17 84 9b 3e 20 46 a4 3d 1c 0f e2 3d 4c 11 b4 3c
       0.30374214 0.08021188 0.11038038 0.021980904
000150 89 23 0d 3d 7a 1a 33 3d e3 a3 4e be 24 bd 39 bd
       0.034457717 0.043726422 -0.20179705 -0.045346394
000160 2b 36 21 3d c3 8f d4 3b a0 0c 04 bd a2 2d 5d bb
       0.0393583 0.0064868643 -0.032238603 -0.0033749123
000170 4a 3a c6 ba 29 f6 95 bd 11 46 a5 3d bf 83 15 3d
       -0.0015123573 -0.07322342 0.08070005 0.036502596
000180 d4 89 5d bd 6c 5f 51 bd 6e 06 10 be 2e 2a e9 bc
       -0.05408652 -0.051116392 -0.14064953 -0.028462496
000190 59 67 9d 3a 8f 7e 20 bc 22 91 08 be 41 e7 3e bd
       0.0012008949 -0.009795799 -0.13336614 -0.04660726
0001a0 6f e4 8d 3d 22 d7 29 bd 4e a3 7e bb 17 ca db 3c
       0.06928336 -0.041464932 -0.0038854661 0.026829762
0001b0 41 32 5b 3c 05 8a 47 bc f4 3f 38 bd 78 23 1a 3d
       0.013378681 -0.0121789025 -0.044982865 0.037631482
0001c0 66 dd 44 bd 17 5a 02 3e 82 e7 cd bd b4 99 af bc
       -0.048062705 0.12729679 -0.10053922 -0.021435596
0001d0 66 ca 46 bd d7 03 b2 3d a5 0e 19 bd 4c 27 27 3d
       -0.048532866 0.08692139 -0.03736748 0.04080896
0001e0 0c bd 0a bd 76 8b f6 39 de 10 9d 3b d4 bd 90 bd
       -0.033871695 0.00047024683 0.0047932705 -0.07067457
0001f0 53 33 98 bc aa f9 97 bd 42 0c 5e 3d 5d 7c 65 bd
       -0.01857916 -0.074206665 0.05421091 -0.056026805
000200 6d e1 1d 3d 4e 96 77 bc b2 1a 5e 3d 1f e6 86 bc
       0.03854506 -0.015111519 0.054224677 -0.016467152
000210 b4 b8 6d bc c0 a8 bf bd 32 9e d1 bc b5 f1 07 3d
       -0.014509369 -0.093583584 -0.025588129 0.033189494
000220 21 05 36 bd 78 03 91 3c 9b b0 e1 3d 64 b9 7d 3a
       -0.044438485 0.01770185 0.11020013 0.00096788094
000230 eb c0 19 3d 4b 80 3e 3b 83 be b9 3d fb 02 03 3e
       0.037537497 0.0029068168 0.0906954 0.12794106
000240 ca 8b 36 be 4f 84 cc bd 6a 46 9b bd b9 be 6a 3d
       -0.17826763 -0.09986173 -0.0758179 0.057310794
000250 11 2a d6 3c 2b 93 67 3d 8f d2 4b 3d c5 c4 36 bd
       0.026143106 0.056536835 0.04976135 -0.044621248
000260 71 cc 44 bb ee 80 5b bc f9 02 08 3d 83 28 ec 3d
       -0.0030029083 -0.013397438 0.03320596 0.115311645
000270 d9 c9 9d 3d d0 ae b7 3d cf dd 20 bd 9f a3 68 bc
       0.07704515 0.0896889 -0.039274033 -0.014199167
000280 fd 57 94 3c 89 63 21 bc 85 7c 88 bd b5 30 d3 bc
       0.018108362 -0.009850391 -0.06664375 -0.025780061
000290 1c 84 1e be 91 04 d0 3c fe 25 69 bd 2e 41 9c bd
       -0.15480083 0.025392802 -0.056920998 -0.076296195
0002a0 41 18 82 3d 46 9d 46 3d fe 12 32 3c 08 44 1b be
       0.06352282 0.04848983 0.010868786 -0.1516267
0002b0 2a 8b d9 3c f7 47 db bd fa 96 eb bc 8b c1 5f bd
       0.026555616 -0.107070856 -0.028758515 -0.054627936
0002c0 51 fe 3a bd ec c1 04 be 56 93 4b be db 1e 81 bd
       -0.04565269 -0.129646 -0.19880423 -0.06304713
0002d0 f4 0f a7 bc 91 01 d9 bd fb 52 52 bd b0 f4 a7 bd
       -0.02039335 -0.10596002 -0.051348668 -0.08200967
0002e0 a1 b7 83 3d d3 a7 1e 3d bb 2a ed bc 9c d1 09 bd
       0.06431509 0.03873427 -0.02895104 -0.033647165
0002f0 52 d5 ed bc 72 8f ff bc 28 0c 50 bc fc 40 8f bc
       -0.029032383 -0.03119633 -0.012698211 -0.017487042
000300 37 09 ce bd 84 55 2f be 3e c7 60 be 6d ce 42 bd
       -0.10060351 -0.17122465 -0.21951005 -0.047560144
000310 de e4 a7 3d 36 08 fc 3c 25 a2 51 3d 0c 84 4e 3d
       0.0819795 0.030765634 0.051180024 0.0504189
000320 24 27 b2 3b 63 98 a8 3c e2 60 18 3e fc 35 be 3d
       0.005436795 0.020580476 0.14880708 0.092876405
000330 9c 36 00 bc be cb b4 3c 1b 1e e4 bc 61 cd 1f 3c
       -0.00782552 0.022069808 -0.027846387 0.009753556
000340 8b 48 24 3d d5 12 87 3c 4b b4 50 3d 17 3f ed 3d
       0.040108245 0.016488472 0.05095319 0.11584299
000350 0b 4d f4 3d 13 07 6b bd a5 4e af bd 70 b4 3a be
       0.11928757 -0.057379793 -0.08559922 -0.18232894
000360 24 05 16 3d 84 3f 77 3c b7 25 b7 3c 53 b7 9c 3d
       0.036625996 0.015090827 0.022356851 0.07652154
000370 12 59 bf 3b 25 07 37 3d a9 d0 bd 3c b5 0d d3 bd
       0.0058394754 0.044684548 0.023170786 -0.10305349
000380 a7 c2 9b bc 86 e3 10 bd 1e 33 71 bc 1a 04 b9 3d
       -0.019013716 -0.035373233 -0.01472166 0.090339854
000390 66 d3 a7 bc 0a 80 89 3c 8b d0 01 3e d3 cb ba 3d
       -0.020486545 0.016784687 0.12677209 0.09120908
0003a0 8e f4 7c 3d 12 97 5f 3d 91 6c 14 3e da b6 19 3e
       0.061756663 0.05458743 0.1449454 0.15011159
0003b0 72 96 17 3d ea d7 ad 3c 27 10 39 bc 48 b8 4e bd
       0.03700871 0.02122112 -0.011295355 -0.050468713
0003c0 85 ae 74 bb 75 40 db 3a d1 55 7d 3d 28 e5 d7 3d
       -0.0037335467 0.0016727584 0.06184942 0.10541755
0003d0 32 50 0f 3d 56 d5 04 3e ed 6d fe 3c 81 50 b1 bd
       0.03498859 0.12972006 0.031058276 -0.08657933
0003e0 73 b9 11 3c ab cc 82 3d 74 4e c1 bd 32 e6 ab bd
       0.008894312 0.063866936 -0.09438792 -0.08393516
0003f0 f1 21 87 3d 21 21 cb 3d f8 c5 6d bc 30 26 3b 3d
       0.06598271 0.09918428 -0.014512531 0.045690715

fc1.bias f4 [50]
000000 90 9a 29 3d a2 3a 32 bc 36 b9 0b 3d f7 43 a6 bb
       0.041407168 -0.010878237 0.034112178 -0.00507402
000010 b7 1a 85 3d af 7f 71 bc 5c 2d 7b bd 03 8b 06 3d
       0.06499236 -0.014739915 -0.061322555 0.032847416
000020 3b 2c 97 3c be 92 9b 3c 1c 99 7b bd 47 ed f1 3c
       0.018453708 0.01899087 -0.061425313 0.029532088
000030 9d b7 83 bc 32 75 99 39 d5 f9 a0 bc b5 a0 6e 3c
       -0.016078765 0.0002926975 -0.01965038 0.014564683
000040 bb e4 0e bc c4 d9 e7 bc 36 45 d2 bc b1 78 b3 3d
       -0.008721526 -0.02830208 -0.025667768 0.087632544
000050 71 1a 6b 3d 3c 72 a5 3d 34 b3 f0 3d 4d 61 bb 3c
       0.057398263 0.08078429 0.1175293 0.022873545
000060 3a 71 c6 3c a1 7a ac 3d af 96 b6 3d 12 c0 44 3c
       0.024223913 0.08421827 0.08915459 0.012008684
000070 36 86 90 bc e7 a9 f3 3c 08 fd 62 3d 9e c9 98 bc
       -0.017642122 0.029744102 0.05541709 -0.018650826
000080 b0 41 19 3c c6 cc 1e 3d 1b 82 4a 3c ba ce da bc
       0.00935404 0.038769506 0.012360121 -0.026709903
000090 42 46 23 3d de 9d 48 3c b4 4f ae 3c f2 69 a2 3d
       0.039861925 0.01224467 0.02127824 0.07930364
0000a0 07 3c 5b 3d e7 b1 35 bd 58 8c 45 bc 1b a0 36 3d
       0.053524043 -0.044359114 -0.012057386 0.044586282
0000b0 7c ca c2 3d 4b e4 22 3d d2 d0 94 3b 20 3e 0c bd
       0.09511277 0.0397685 0.004541495 -0.034238935
0000c0 50 ed de b9 df bd 64 bc
       -0.0004251995 -0.013961284

fc2.weight f4 [10, 50]
000000 23 c1 92 bb 36 37 f1 3d d5 8b c9 bd f3 39 87 bd
       -0.00447859 0.11778109 -0.09841124 -0.0660285
000010 29 1f aa 3e fa 8d 44 be 34 79 09 be ff cd 3f 3e
       0.33226898 -0.19194785 -0.13425142 0.18730925
000020 a5 97 3b 3d 4e 1a 0c be b6 c8 8d be 15 78 91 be
       0.045798916 -0.1368191 -0.27692193 -0.28411928
000030 ad 40 94 3e fa 52 aa be 9d 54 4e 3e 2d fb 71 3e
       0.28955594 -0.3326643 0.20149465 0.23630972
000040 49 e3 c9 bd e9 4a fb 3d 9f 38 e3 bd 9e a4 8a be
       -0.09857804 0.12270147 -0.11094784 -0.27078718
000050 f4 6a b3 bc c6 ad 78 bd c3 5e 0b be 96 06 d6 bd
       -0.021901585 -0.0607126 -0.13610367 -0.10450475
000060 51 39 eb bc ab a3 90 be 87 80 41 3e 3f c2 fa bd
       -0.028713854 -0.2824987 0.18896686 -0.12244081
000070 f1 b7 a0 be 1f be 3c be 8f 15 cf 3e fc b2 06 be
       -0.31390336 -0.184319 0.40446135 -0.13154215
000080 b9 a2 3a be 4b 17 92 be da cc 74 3e c6 8b 70 3e
       -0.18226136 -0.28533396 0.2390627 0.2349082
000090 07 f7 6f be 4c e5 4c be 1d 6a 85 be 5d 0e 83 be
       -0.23434077 -0.20009345 -0.2605752 -0.25596896
0000a0 63 a4 28 bd bd 8e 2c be 82 9c 02 3e ed f9 b9 3e
       -0.041172396 -0.16851325 0.12755015 0.3632349
0000b0 be 1d 9f be 8a b1 83 bd 40 3b 4e be a1 58 6d 3e
       -0.3107738 -0.06430347 -0.2013979 0.2317834
0000c0 4f 96 61 be af 45 a5 3e 8e 6f 9e be 8b 85 4a be
       -0.22029994 0.32279727 -0.30944484 -0.19777505
0000d0 79 61 09 3e 71 07 c3 3d de 50 03 3d 54 43 4e bb
       0.13416089 0.09522904 0.032059543 -0.0031473236
0000e0 ed 48 0e be 46 bd 83 be 60 42 8a be 4e a7 c1 3d
       -0.13895006 -0.25730342 -0.27003765 0.09455739
0000f0 cf ad 22 be d6 c9 78 3e 16 f9 5f be 49 c7 86 be
       -0.15886615 0.24295744 -0.21872362 -0.26323918
000100 eb aa 6d be 21 be db bd e0 a3 86 be ad 69 19 be
       -0.23209731 -0.107296236 -0.26296902 -0.14981718
000110 8c e9 b9 bd 59 99 bc 3e fb 0d fe 3e 38 eb 5b 3e
       -0.09077749 0.36835745 0.4962004 0.21476448
000120 33 f1 80 3d ba aa a5 3e c1 27 9d 3e d8 14 41 3e
       0.06296005 0.32356817 0.30694392 0.18855608
000130 50 9b e2 3e 36 83 12 3e 00 3f d8 3d 70 e3 8a 3e
       0.4425912 0.14307866 0.10558891 0.27126646
000140 e1 15 6d be fd d7 d2 bd 25 04 2c be c4 cf 48 3e
       -0.23152877 -0.10295103 -0.16798456 0.19610506
000150 95 ed 93 be 08 45 94 bc eb f4 3d be 83 e0 ce bd
       -0.28892198 -0.018099323 -0.1855046 -0.10101416
000160 b4 29 65 be c4 15 57 3d 5e 28 60 bd 89 52 ef bd
       -0.2237919 0.05251099 -0.054725997 -0.11685664
000170 ea 29 98 be 04 1b d6 3c 19 8c e6 3e 5d 87 28 be
       -0.29719478 0.026135929 0.4502876 -0.16457887
000180 5a 18 5e be b8 93 2a be 5b fc eb 3c 68 c9 d6 bd
       -0.21688977 -0.16657913 0.028806856 -0.10487634
000190 51 b3 bf 3d 04 16 7d be fc 08 b1 3e cd 9b 4b bd
       0.09360374 -0.2471543 0.34577167 -0.04970913
0001a0 4c 77 28 be 7a e1 28 be 46 36 80 3d 76 5c 1a 3e
       -0.16451758 -0.16492262 0.06260352 0.15074334
0001b0 eb 87 8a bd 54 eb a0 3e 39 b2 2d be 1b 73 af be
       -0.067642055 0.3142954 -0.16962518 -0.34267506
0001c0 f6 fc a3 bc 83 a2 5c be b6 f1 b3 bd c3 56 97 3d
       -0.020018082 -0.21546368 -0.08786337 0.07389595
0001d0 54 dc db 3e ad 1b 0c be 13 44 d8 3c c5 48 44 be
       0.42941535 -0.13682432 0.026399648 -0.19168384
0001e0 e5 8c 41 be 4e ce 8f 3e f4 6a 5f be 38 ef 76 3e
       -0.18901403 0.28087085 -0.21818143 0.24114692
0001f0 5e d1 1b 3e 9d 71 a4 3e 49 79 4b be f7 62 94 3e
       0.15216586 0.3211793 -0.19870485 0.28981754
000200 10 ee 81 3e 80 7b 6b be d8 ec 88 be 35 58 e8 3e
       0.2537694 -0.2299633 -0.26743197 0.45379797
000210 a5 ad 51 be 07 29 9e be 9a 93 26 3d 5e ac b1 3e
       -0.20476396 -0.30890676 0.040668108 0.34701818
000220 eb ae e0 bb 34 5d 33 3c 7a d1 28 be 82 eb 2a 3e
       -0.0068567893 0.010947514 -0.16486159 0.16691402
000230 3f 43 01 be 01 f7 73 be 6f ad e1 3e 69 db 1b be
       -0.12623309 -0.23824693 0.44077632 -0.15220417
000240 57 8d f2 3d e7 d8 28 bb 2e e4 a8 3c 2c 2a b3 3e
       0.11843365 -0.002576405 0.020616617 0.34993112
000250 19 b2 98 bd 41 3e b5 bd 14 58 27 be 70 ee 43 be
       -0.074558444 -0.088497646 -0.16342193 -0.19133925
000260 e5 62 52 bc 00 6f 7d 3d 06 18 e7 bd 2c cf 28 3d
       -0.012840961 0.061873436 -0.11283879 0.0412132
000270 7a 28 af 3e c2 30 56 be 87 1a 31 3e 4a 6a 44 be
       0.3421057 -0.20917037 0.17295276 -0.19181171
000280 f6 94 8f 3d 66 ab 7b 3e de 96 85 be 8d 06 9b 3e
       0.07010834 0.24577102 -0.26091665 0.30278435
000290 2f ee 00 be b4 d2 2e 3e 8a f1 14 be 58 4d 06 be
       -0.1259086 0.17072564 -0.14545265 -0.13115442
0002a0 ce 7e c1 3e e0 98 af be b1 d1 36 3e 33 6d 75 be
       0.37792057 -0.34296322 0.17853428 -0.23967437
0002b0 c1 fc 64 be 23 b5 c4 bd 71 b1 66 be d7 60 a7 be
       -0.22362043 -0.096048616 -0.22528626 -0.3269107
0002c0 ac 73 2b be 32 a0 88 3e 37 31 8d 3d 1e 1c c5 3e
       -0.16743344 0.2668472 0.068941526 0.38498014
0002d0 90 e3 f9 bd c6 e8 06 be 17 20 29 be 54 60 49 be
       -0.12201607 -0.13174734 -0.16516148 -0.19665653
0002e0 44 f1 10 be a5 c3 62 3e dc 81 26 be d6 7e 18 3e
       -0.14154536 0.22144945 -0.16260475 0.14892134
0002f0 96 b0 31 be 26 1a c7 3e 05 73 5d be 0d f9 c2 3e
       -0.17352518 0.38887137 -0.21625908 0.38080636
000300 7e 88 45 bc af 35 0c bd 55 14 a7 3d cf 03 8f 3e
       -0.012056468 -0.034230884 0.08158175 0.27932593
000310 af 44 6e 3e 4f a1 6a 3e 9d 28 2f be 33 f7 96 3e
       0.23268388 0.22913097 -0.17105336 0.29485473
000320 ad 1c df 3e 98 04 6c be b4 09 5d be de fb 98 bd
       0.43576565 -0.23048627 -0.21585733 -0.07469915
000330 be 42 51 be 27 f1 91 3d 91 20 e5 3b cd f9 bc 3e
       -0.20435616 0.07126074 0.0069924076 0.36909333
000340 24 9a 86 be 95 47 b6 bd dc 82 9b 3e 07 d0 e9 3d
       -0.26289475 -0.08900372 0.30373275 0.11416631
000350 53 a6 5f 3e d5 df 67 3b 76 fa 25 be e4 87 09 be
       0.21840791 0.0035381217 -0.16208825 -0.13430744
000360 0c b8 c2 bd 8d a3 29 be 9e 38 28 be 23 6d 72 be
       -0.095077604 -0.16566296 -0.16427848 -0.23674445
000370 5f da 10 3d 1f 9b af 3e cc c1 62 3e cd 2e 3c 3d
       0.035364505 0.34298036 0.2214424 0.04594307
000380 54 83 a5 3e 5f 9b 92 bd 8b ac 90 be 1d 65 85 3d
       0.32326758 -0.07158541 -0.2825664 0.065134265
000390 79 22 8a be 31 a4 0f be fd 2c 5c be 91 87 c4 bd
       -0.26979426 -0.14027478 -0.21501537 -0.0959617
0003a0 ce 5f fa 3e 6e e7 96 3e fc 08 a3 be 18 3b ae 3a
       0.48901218 0.29473442 -0.31842792 0.0013292758
0003b0 14 06 cc 3e 2f ac a2 3e f4 d6 93 3e c5 4a 27 be
       0.39848387 0.3177199 0.28874934 -0.16337116
0003c0 2c 31 a9 3e 31 c0 8c be c0 14 fa 3d fd f1 de bd
       0.33045328 -0.2749038 0.12210989 -0.10885999
0003d0 2e b1 42 bd 71 42 56 be b4 81 82 bd cf c4 1a be
       -0.047532253 -0.20923783 -0.06372395 -0.15114139
0003e0 93 60 d1 3e 6c de b4 be 4c 55 11 bc 14 4c 65 3e
       0.40893993 -0.35325944 -0.008870434 0.22392303
0003f0 28 ae c0 3c 1c 01 05 3e 6f 3d 95 be 4a 30 92 be
       0.023520544 0.12988704 -0.29148433 -0.28552467

fc2.bias f4 [10]
000000 00 28 05 3e e2 c6 d1 3e 73 c7 8f be 3c a8 88 bc
       0.1300354 0.40972048 -0.28081855 -0.016681783
000010 d9 5e 12 3e ff da f7 bd 48 3d 8e bd 9f fc ab bd
       0.14293994 -0.12102317 -0.06945282 -0.08397793
000020 12 bd 99 3e 7c e4 80 3d
       0.30027062 0.0629358
