save/mnist.pth (torch, 89851 bytes, 8 tensors)

conv1.weight f4 [10, 1, 5, 5]
00000000: e314 61bd 72c9 ea3d 7336 773e cd3d 4abe
00000010: f38f e6bd 7847 4a3e c00e 96bd b161 0c3e
00000020: 9ded 843e 0d57 f23e 19da 643e 34a1 7f3e
00000030: 9bee 4a3d 4bb4 a43e 06ea fd3e 3b00 edbd
00000040: 6c1c 903c 3bba aebd 3034 1abe b9d7 13be
00000050: 04a5 e0bd 331d 9bbe 3244 b6be e093 10bf
00000060: 4bbd 0cbf b7b1 afbc 67f8 99be d7ff 98be
00000070: dfb8 82be e044 bdbd f5f2 1cbe b8c2 42be
00000080: ed6b eabd 50ac 233e c26a 6e3d ac50 fe3e
00000090: 5719 1f3f 4254 d53e b3c4 9d3e 88ab f53d
000000a0: cb1a d13c 37df 993e 99ab f83d 8058 ba3c
000000b0: f46a eb3c 3116 ddbe 1f26 f0be cd49 0dbe
000000c0: 75a5 89be df39 f4bd 66e3 54bd 9127 003e
000000d0: f1e9 cf3e d4cc a13e 2fce 263e f823 f53d
000000e0: cf31 6cbd 531e 54be dd23 05be c47b 9abe
000000f0: ea5a 6f3d dc18 b33d 8444 433d 0328 cd3d
00000100: 6bf5 873e a7d5 6abe 0616 f1bd ced3 94bd
00000110: 0640 dc3c 3e29 923e d38f 44be b2eb 7fbe
00000120: 916d 8dbe 755c a1be ae03 c7be 490c 7bbc
00000130: 08d7 ba3a 7ff2 3d3e 4b06 ca3d 1065 b03e
00000140: 9af3 43bd 6498 0cbe 9e82 6dbd 40fe c73d
00000150: 645b f43d ed33 59be f657 8abe ff36 1bbe
00000160: 9b41 123e b7d9 a13e 903d 1cbe 6bf4 d3bd
00000170: 6f26 84be 0ed5 a73d c8a2 bf3e e62a efbd
00000180: 1b2a 7dbe 2de7 8ebe 56ce 50be 6b21 c03e
00000190: a54a a83d f20b 903d 4f10 cbbe 891d 1ebf
000001a0: ea17 d8be 0c32 efbd 915d d53e e622 b6bd
000001b0: 2269 e9be 30cf 0fbf a3ce 06bd 6b11 103f
000001c0: ee3f 5f3f c344 883e 2ab2 e4be a3a2 bfbd
000001d0: 01d9 0f3d cf4d 283f 4a5d c93e 2ad2 a53d
000001e0: 2e66 3fbe 98fe 9dbe 6ac0 febd 648d 5c3e
000001f0: 9837 733e 7993 74bb ae1d de3c c6db 293d
00000200: 3ee0 21bd 8426 3bbd 0528 4cbd 8b00 ab3a
00000210: a178 0c3d 9e61 613d a32b 34bd f433 a73c
00000220: a280 4f3e 91a0 a83c e4c3 d63d 92e4 1cbe
00000230: 43e8 133e 32ab c93e f21f 20be d3ca 8bbe
00000240: d60c 69bd 84f8 c93e 5f50 6a3e 5e5a a1be
00000250: e60e b0be cccf c3bd 6202 6e3c e5e6 c63d
00000260: cf8e 293e 760e 8e3d ea31 37be 0f71 edbd
00000270: bb80 6d3e dfab 3f3e 08d3 b23d 88cb d1be
00000280: 4cf8 d3bd 4453 033f 4cc9 cd3e cd0b 92be
00000290: d60b f7be bf14 3e3d c955 af3e a53f 6dbd
000002a0: 1ddc b0bd 149f fabe 5d78 93b9 c84f d33d
000002b0: 6111 113d 5309 d0bd 1037 b2be 99f6 e43b
000002c0: 7dd2 33be 716d 9fbe 7a01 903d 9ab1 90bd
000002d0: f5f8 a8be 8907 9dbe 17d9 023e 6597 683d
000002e0: 6ea5 d3bd 4be9 08be e0d1 6abd 5637 be3c
000002f0: f174 653e 054f 553d 2a5a a2be f14b 3bbe
00000300: eb51 c83d 8a8e 843e 5a16 1a3e 11e8 a2be
00000310: 1a08 8bbe fe27 35bd c631 863e 78c6 ba3e
00000320: db57 823d ec6a ed3d ebec 35be ca43 8dbe
00000330: 56e4 80be 41ae c83d 31f4 e0be fc05 d0be
00000340: 17e9 7fbe eb79 953e 45da 0abe c6bc 43be
00000350: 0e31 a0bb 2cbd a13e 0081 f73e 2957 c5bd
00000360: 2803 033e 5830 263e 2b7e cc3e 2b66 0e3e
00000370: 6115 cfbd 03f6 033e 372d f43d f95a 5a3d
00000380: 94b7 b5be 92fd 083d 3ff1 cb3d 008a 39bd
00000390: 2d3b e0bd 56b8 a2be cbcb 08be 864b 8e3d
000003a0: d0e7 7dbe d969 88be 3941 94be bb8c a5bc
000003b0: 4fcc 7cbe 5413 abbe 2307 9fbe 6871 cbbd
000003c0: c50d 65bd af18 c4be 3247 55be 3df3 f7bb
000003d0: a63e c63e 837e 9cbe f557 24be 3056 103e
000003e0: 9721 cb3e d748 d63e
-0.05495156 0.11464204 0.24141864 -0.19750138 -0.11257925 0.19753826 -0.07327032 0.13709141
0.25962535 0.4733204 0.22348823 0.24963838 0.04954396 0.32168803 0.49592608 -0.115723096
0.017591678 -0.085316144 -0.1505897 -0.1443776 -0.10968974 -0.30295715 -0.35598904 -0.5647564
-0.5497634 -0.021447046 -0.30072328 -0.2988269 -0.2553167 -0.092416525 -0.15327056 -0.19019592
-0.114463665 0.15983701 0.05820728 0.49670923 0.6214804 0.41665846 0.30814132 0.119956076
0.025525471 0.30053112 0.12142105 0.022747278 0.028737523 -0.43180993 -0.46904084 -0.13797684
-0.26884046 -0.119251005 -0.051974677 0.12515093 0.4060817 0.31601584 0.1628959 0.11969751
-0.05766469 -0.20714693 -0.13001962 -0.3017255 0.05843631 0.08744976 0.047672763 0.10017397
0.26554427 -0.22933064 -0.11771779 -0.07266961 0.026885998 0.2854709 -0.1919549 -0.24992254
-0.27622655 -0.31515852 -0.38869995 -0.015322753 0.0014254758 0.18549536 0.098644815 0.34452105
-0.04783974 -0.13730007 -0.057985894 0.09765291 0.11931494 -0.21211214 -0.27020234 -0.15157698
0.14282839 0.31611416 -0.15257859 -0.103493534 -0.25810573 0.08194934 0.3742888 -0.11678104
-0.24723093 -0.27910748 -0.20391211 0.37525496 0.08217362 0.070335284 -0.3966088 -0.6176382
-0.42205745 -0.116794676 0.41672948 -0.08893375 -0.45588022 -0.5617552 -0.032911908 0.5627658
0.87206924 0.2661496 -0.44667178 -0.09357192 0.03511906 0.65743726 0.39328986 0.08096726
-0.18691322 -0.30858302 -0.12439044 0.21538311 0.23751676 -0.0037319346 0.027113762 0.041469358
-0.039520495 -0.04569103 -0.049842853 0.0013046426 0.03429473 0.055024736 -0.043986928 0.020410515
0.20263913 0.020584377 0.10486582 -0.15321568 0.1444407 0.39388424 -0.15637186 -0.2730318
-0.056897007 0.39447415 0.22882222 -0.31514257 -0.34386367 -0.095611185 0.014526935 0.097120084
0.16558383 0.06936352 -0.17890134 -0.1159383 0.23193638 0.18717907 0.08731657 -0.40975595
-0.10350093 0.5129893 0.4019264 -0.28524628 -0.48251218 0.046406504 0.34245136 -0.057922024
-0.08635733 -0.48949492 -0.00028127703 0.103179514 0.035416964 -0.101580285 -0.34807634 0.0069874045
-0.17560764 -0.31138185 0.07031532 -0.07065125 -0.3300244 -0.3066981 0.12778126 0.056785006
-0.103342876 -0.13370244 -0.05732906 0.023219746 0.22407891 0.052077312 -0.31709415 -0.18290688
0.097812496 0.2589 0.15047589 -0.31817678 -0.27154619 -0.044227593 0.2620985 0.36479545
0.06364413 0.11592659 -0.17766158 -0.2759078 -0.25174206 0.09798861 -0.43936303 -0.40629566
-0.2499126 0.2919458 -0.13559826 -0.1911498 -0.0048886603 0.3158964 0.48340607 -0.09635765
0.12794173 0.16229379 0.3994001 0.13906161 -0.101114996 0.12886815 0.119226865 0.053309415
-0.35491621 0.03344495 0.099581234 -0.045297623 -0.10948787 -0.31781262 -0.13358991 0.06947999
-0.2479546 -0.26643255 -0.2895601 -0.020208707 -0.24687313 -0.33413184 -0.31060132 -0.0993374
-0.055921335 -0.38300082 -0.2082794 -0.007566838 0.38719672 -0.3056527 -0.16049178 0.14095378
0.39674065 0.41852447

conv1.bias f4 [10]
00000000: 8731 2b3c e037 2fbe 3f7a 2f3d deb4 81be
00000010: d880 a5be f014 e1bd d1b1 a3be 5b09 53be
00000020: 3d11 60be f5d7 9cbe
0.01044882 -0.17111158 0.042841192 -0.25333303 -0.32324862 -0.10990322 -0.319716 -0.20609038
-0.21881576 -0.30633512

conv2.weight f4 [20, 10, 5, 5]
00000000: 1631 54bd 0bdb 8b3d 4f78 133e 207c e93d
00000010: b2cf a13d 719e 403d 5913 963d 8f0e 2f3e
00000020: ab87 f03d 2598 fd3d 4f06 973e b7bc f53d
00000030: 4262 8d3d 3468 57bd ae2d 0dbe ed75 c0bd
00000040: d537 c8bd 812b b0bd 1a05 1ebe f1a4 43be
00000050: 2daa f7bd 5fea 52bd dccf fd3c 53b2 61bd
00000060: 6652 5dbd fc37 0e3d 3025 12bd ff8d 023e
00000070: 420e 563e 5f9f fabc 8ddb cbbc 7769 bc3d
00000080: f738 bd3b e94c 353d 85b7 26bd 1e56 dc3b
00000090: e7b1 e33d 2756 1c3e 8b50 9a3d db1c a1bc
000000a0: 1595 383c ba99 90bd 505c a03c bdd0 533c
000000b0: 175d 98bb dbc8 343d f527 c03d fb2e 943d
000000c0: be46 513d 4a5a 783b 8dab 09bd 19d6 343b
000000d0: d803 6b3d 4fb1 bd3d 4c8b 91bc 322d 8b3c
000000e0: f0f5 2f3d 5c46 043d 024c 1e3e 73fa 003e
000000f0: c1e4 c93d cb3a 873d e0fe 13bc 6b23 8b3d
00000100: bb33 df3c c91f 26bd 45be adbc b53c 6cbd
00000110: d7df 48bd b280 8ebd fae1 87bd 7c5e d73c
00000120: 2340 7abd d33e 75bd 24aa ef3c 5c46 983d
00000130: e628 ddbd b609 1cbe 3733 cfbd d610 6abd
00000140: ea87 823d bc5b e0bd 0ea9 16be 7c7e 4ebe
00000150: 38bc cabd 1015 883d 318a 99ba c3a3 25be
00000160: f992 61bd 1f34 18bd 8c68 783d 257b a53c
00000170: d1b5 18bd 0963 d6bd e9f7 c3bd 885e 943c
00000180: ff77 93bd 790f 05be f824 f5bd 9359 db3a
00000190: 0f95 ccbc 2cd8 a4bd c9d3 f4bc 58c0 72bd
000001a0: 3f35 3b3d 86b7 993c afb8 1fbd 1897 24be
000001b0: 9a5a cdbd cf49 6b3d f41c 5abc 642f 8b3e
000001c0: 15c5 4b3d bb32 98bc c574 19bd bb32 7c3d
000001d0: 91c7 f63d b9f1 293e 3a7e 9d3c 0a76 c9bc
000001e0: 215e 6e3e 4279 963d a86e 9b3d e0a9 893d
000001f0: c9d6 b1bd cfb5 dfbc 7116 673d d798 633d
00000200: a8b0 773d 3747 113d 0506 dcbd f247 083d
00000210: 92f1 98bd 6914 74bb ad07 663b 0744 5ebc
00000220: 8e51 52be c4f6 32bd 7390 79bd 45e3 eebd
00000230: 0b69 5abd 00a7 2cbc d0a4 0ebd 7b9e 96bd
00000240: ce13 08be fb37 ae3d fce2 0d3e 29aa 823a
00000250: 586e 373d b86c 863d 4bb6 9dbd 9c37 af3d
00000260: 62cc 133d 9f83 903d d02f ed3d 8e6d ae3b
00000270: 2cda 953d 61ef 49bd f718 f2bc 5c52 b4bd
00000280: 841c 2dbe 8e3d 28be ad9d 9fbd e9dd f2bd
00000290: 36f1 43be c688 16be 0769 58be 2fe2 a1bd
000002a0: 2035 c0bd f393 5bbe 6c41 bf3d c049 803c
000002b0: eeab f5bc f6c6 b9bd 8ef8 e2bd 2d40 6dbd
000002c0: afa7 123b 997e 5b3b d9ad 83bd a7fe f8bd
000002d0: 859f e03d 96df 68bd a842 56bd 8e56 14bd
000002e0: 05d9 bcbd e701 32bc 1861 a6bd 0563 d2bd
000002f0: 10d9 73bd 6012 56bd ce32 1dbb b76a b5bc
00000300: c57d b3bd 5193 87bd 3a7f 10be cfd4 6cbc
00000310: 2b78 9bbc 739a cfbd f77d dbbd 1893 be3c
00000320: 97a1 bb3d a6e5 3b3e 76a9 543e 93d6 c43d
00000330: 22d0 f6bc 3562 0a3e 6f99 6c3c b873 02bd
00000340: 880f 36bd 419f f9bd 529c f3bd 4609 36be
00000350: ea97 b4bd 7916 3dbe f111 d4bd 01e2 71be
00000360: f820 48be ca53 02be 7faa 83bd e27e d5bd
00000370: acd4 653d a5b7 dcbc d9c0 30bd 3398 26bd
00000380: 3fc8 57bd af1f ebbc 93c0 623d 0b0f 86bc
00000390: 9cb8 a13d cae4 813d 2d77 96bb 1133 e5bc
000003a0: 16e8 2abc 3099 d73c 2c7c 04bd 5e7d ffbd
000003b0: bb9f 23be 3713 f1bd 5f02 98bc 21e2 89bc
000003c0: 0b57 be3c 9352 c1bd 90e9 433d 3bf2 103c
000003d0: 650f bebc dee3 113d f2de 323d 57d3 cc3c
000003e0: e209 9abd e10e 81bd 37bf 29be 6ada 31be
000003f0: c244 d7bd 47b9 413d 0a7e 39bd 89e9 16be
-0.051804624 0.068288885 0.14401363 0.11400628 0.07900943 0.0470261 0.07327909 0.17095397
0.117446266 0.12382535 0.29497 0.11998885 0.06903507 -0.05258961 -0.13786957 -0.093974926
-0.09776274 -0.08602048 -0.15431634 -0.19105889 -0.12093005 -0.051493045 0.030982904 -0.055101704
-0.05403366 0.03472136 -0.035679996 0.1274948 0.20903876 -0.030593572 -0.024884963 0.09199803
0.005774613 0.0442628 -0.04070236 0.006724133 0.111179166 0.1526724 0.075348936 -0.01966708
0.011266013 -0.07060571 0.019575268 0.012928185 -0.004649769 0.044136863 0.09382621 0.07235523
0.051092856 0.0037895613 -0.03361087 0.0027593432 0.057376713 0.092623346 -0.017766617 0.016989324
0.042959154 0.032293662 0.15458682 0.12595539 0.098580845 0.06603011 -0.009032935 0.06793865
0.027246347 -0.040557656 -0.021208892 -0.057675082 -0.049041595 -0.069581404 -0.066348985 0.02629017
-0.06109632 -0.059874367 0.029255934 0.07435295 -0.107988164 -0.1523808 -0.1011719 -0.057144962
0.0637358 -0.10954997 -0.14712927 -0.20165437 -0.09899181 0.06644642 -0.0011714158 -0.16175751
-0.055071805 -0.03715908 0.06064658 0.020200321 -0.03728277 -0.10468108 -0.095687695 0.018111482
-0.07200622 -0.12994184 -0.11969942 0.0016735069 -0.02497342 -0.08049044 -0.029886143 -0.059265465
0.045705076 0.018764269 -0.038994487 -0.16073263 -0.100270465 0.057443436 -0.013312567 0.27184594
0.0497485 -0.018578878 -0.037464876 0.061571818 0.12049783 0.16596116 0.019225229 -0.024592418
0.23278095 0.07347347 0.075894654 0.06721854 -0.08683545 -0.027308373 0.056417886 0.05556568
0.060471207 0.035468306 -0.10743336 0.033271737 -0.07467951 -0.003724361 0.003509979 -0.013566024
-0.20538923 -0.043692365 -0.060928773 -0.11664442 -0.053322833 -0.010537863 -0.034825146 -0.073544465
-0.13288805 0.08506771 0.13856119 0.0009968925 0.044782966 0.06563705 -0.07700785 0.085555285
0.036083587 0.07056355 0.11581385 0.0053231185 0.073170036 -0.049300555 -0.02955292 -0.08804771
-0.16905409 -0.16429731 -0.07793746 -0.11858732 -0.19134983 -0.14700612 -0.21133815 -0.07904469
-0.09385133 -0.21443157 0.0933865 0.015660167 -0.029989209 -0.09071152 -0.11082564 -0.05792253
0.002237778 0.0033492206 -0.06429643 -0.12157946 0.10967926 -0.056853853 -0.052309662 -0.036215357
-0.09221081 -0.010864711 -0.08123988 -0.10272793 -0.05953318 -0.052263618 -0.002398658 -0.022145612
-0.08764223 -0.06619895 -0.14111033 -0.014455034 -0.018978199 -0.10136881 -0.10717385 0.0232635
0.0916168 0.18349323 0.20767769 0.09611239 -0.030128542 0.13514026 0.014440878 -0.03184864
-0.044448406 -0.121885784 -0.1189505 -0.17776975 -0.08818038 -0.18465604 -0.103549846 -0.2362137
-0.19543827 -0.12727275 -0.06429004 -0.104245916 0.056111023 -0.026943037 -0.043152664 -0.040672492
-0.052681204 -0.028701631 0.055359434 -0.016364595 0.078965396 0.06342466 -0.0045918436 -0.027978452
-0.01043131 0.026318163 -0.032344982 -0.12475084 -0.15978901 -0.11771243 -0.018555818 -0.01683146
0.023234865 -0.09439578 0.047830164 0.008846815 -0.0232007 0.0356177 0.04366965 0.025003118
-0.07521416 -0.06301666 -0.16576849 -0.17368475 -0.105111614 0.047295835 -0.045286216 -0.14737524

conv2.bias f4 [20]
00000000: 7ef6 a539 9218 f03c 02fb abbd 9e9d 04bc
00000010: b461 403d 05b7 c9bc dd85 483d e617 06bc
00000020: aea5 063d 3c34 9cbd aa71 20bd 9fb9 143d
00000030: b7d6 9cbd 97f8 63bd 96a6 123d 63c7 82bd
00000040: 6492 cb3b 9104 bfbd 0392 23bb 75e0 403d
0.00031654903 0.029308591 -0.08397485 -0.0080942195 0.046968177 -0.024623403 0.048955787 -0.008184409
0.03287285 -0.076271504 -0.0391709 0.036309835 -0.07658141 -0.055656996 0.0358034 -0.06385686
0.0062125195 -0.09327043 -0.0024958856 0.04708906

fc1.weight f4 [50, 320]
00000000: 88d6 843d d2b1 ed3c c68d de3d 1411 5abb
00000010: 55bf d53d 2d89 ff3c 5a1d 983d 3b30 25be
00000020: c711 79bb 80c9 06bd fb40 7f3b 33d2 67bc
00000030: c7e9 313d d9f5 ad3d 34ed f3bc c123 f03c
00000040: ac4a 19be 33d9 94bc f792 01be e120 9fbd
00000050: 0744 80bc 4571 0e3c 6c02 b3bd f190 f7bc
00000060: 0746 503d 691b 9dbc 3e20 da3c 5cd8 f43c
00000070: 31cd 453d 2a63 acbb ec89 c53d bca5 963d
00000080: b3c3 03bc 2b94 ce3d f45a 0f3e 6910 393c
00000090: 3a78 b73d ae4f 693d dbb7 3abd 9cb0 74bd
000000a0: 2dbc ce3c 09e7 433c f369 61bd 9d2b 2ebd
000000b0: e506 ae3d 26a1 cf3a 0773 0c3e d7fe ff3d
000000c0: 2d87 393d 72c9 dfbd cd49 f1bd 1f08 09be
000000d0: ddcc d63b a2e8 53bd 772d df3d 770f 183e
000000e0: 61bd 45ba f45b e7bd 07a6 17bc 2e00 043e
000000f0: 80ae 823c 31ef d13d 74fc bc3c d9ff 223d
00000100: 3a77 84ba c13b 2abd 5007 8bbc 411a 16be
00000110: dd96 693d 83ae 613d 7734 82bd b57d 773d
00000120: c10a 523b 8d0e 843d c20e 5c3d 386b a63d
00000130: 5b02 7fbd e85a a5bc 2a2a 8d3d 71a6 f4bc
00000140: 2519 683d f4b6 353a fa78 323c 1c10 8dbd
00000150: e796 273d d9e8 bc3d 9358 a23c 422b 07bd
00000160: 02ba 823c e3a5 bebc 3701 a0bc 2acb 493d
00000170: a9b5 40bd e640 abbc f2c8 043d a874 7d3b
00000180: 8eb3 9dbd 3048 13bd be51 7ebd 8420 153c
00000190: 584f 1ebd 2478 c73a a0ad 283d c9b7 313d
000001a0: b7e4 0f3d 30df bf3c 6ecf 0bbc fc9c 353d
000001b0: 1638 0abd 6385 693d d81b 01bd 4bf6 b1bd
000001c0: 11f8 363d 537e 013d 800b 113e 9554 853b
000001d0: a786 d3bc 4d33 193d 4e95 2e3e 85c3 49bd
000001e0: 0165 07bb 3094 373c fa89 7dbc 56cb f5bc
000001f0: 86b4 df3c 7165 0dbd 5357 b9bd f405 a4bd
00000200: bb08 94bd 7d69 0dbe 7939 2cbe 132d 32be
00000210: 75b8 64bd 0ada 8f3d 4769 293d 2904 843b
00000220: fced d83b eb23 9cbb b60d 233d 5926 3cbb
00000230: 0475 d5bc 2dda 88bc 08aa db3a c8b1 243d
00000240: 11f5 103d 1b15 923d 5e98 d63d 41ea bcb9
00000250: c7a5 923d d914 51bd b9b5 9abd e514 9ebd
00000260: ce15 6ebd 7cd1 90bd 9968 8ebd ce4d 20bb
00000270: 7db8 8fbd 0c49 2bbc 837c 903d 34d6 613d
00000280: 3abb bcbd 23d9 133d 99f4 a23d 1bf1 083e
00000290: 6afe 71bd 66fd dabd 0766 683d 68e2 373d
000002a0: a0c7 d9bd 130a 10be 94da f5bc 6002 22be
000002b0: a747 753a 4b0f 383d f781 483d df1f 09bc
000002c0: 0e0d 803d 2271 e63d a1dc ad3c 3e77 70bc
000002d0: 7bb9 003b 3048 e13d 6852 c03c a429 4fbd
000002e0: 13d0 86bc 2f24 04bc 4877 86bc c558 553d
000002f0: 653c a63b d390 a9bd 830a d8bd fedc 833b
00000300: e0ba f6bc fbe6 b33d 5d2e 813d 1041 21be
00000310: e80f 71bd 6e32 ce3d 3711 713d 4ab3 a9bd
00000320: 5a23 2abd f471 e73d 3c74 c1bd 0cb0 283d
00000330: f022 773c 7311 aa3c d133 9c3b 421c 57bc
00000340: 65dd 793c d123 b13d 4182 f9bd aebd 02be
00000350: 207b 88bc f294 5e3c 3f28 17bd e681 92bc
00000360: c16d a53c 1dd3 be3d 8fef efbd a81c 253d
00000370: bae6 043d 3e71 563d 74b4 3b3e c20a f23d
00000380: bf94 bdbd 8e2f cebd 487c ef3d 9876 073e
00000390: 01dc b7bd dd53 323d 9d39 743c 0531 dabb
000003a0: 9151 9ebc 73b1 26be 9975 ce3d 1dc1 9abd
000003b0: dda3 333d 726d 22be 41fe 25bd eaa0 67bd
000003c0: ac58 a0bd 6249 10bd 2799 6b3d 639a 9d3d
000003d0: c70c 5ebb bff9 823d 0766 353d 189d 033c
000003e0: 7b1b 653c 0142 c83d 0170 8f3c 31c3 43bd
000003f0: 4bc7 e1bc 2498 54bd d9ad 07bd 677d d43d
0.06486231 0.029015455 0.10866885 -0.003327434 0.10436884 0.03119334 0.07427473 -0.1613168
-0.003800498 -0.03290701 0.0038948643 -0.0141492365 0.043435838 0.08494157 -0.029776193 0.029313924
-0.14969891 -0.018169975 -0.12653719 -0.07769943 -0.015657438 0.008693998 -0.08740696 -0.03022048
0.050848033 -0.01917811 0.026626702 0.029888324 0.04829139 -0.0052608447 0.09645447 0.0735583
-0.008042264 0.100868545 0.1399954 0.011295416 0.08958478 0.056960754 -0.045585494 -0.05973874
0.025236214 0.011956939 -0.05503268 -0.04252206 0.08497409 0.0015840873 0.13715754 0.12499779
0.04529493 -0.109270945 -0.117816545 -0.13382004 0.0065551833 -0.051735528 0.108973436 0.1484965
-0.0007543173 -0.112968355 -0.009255893 0.12890694 0.015952349 0.102507 0.023069598 0.039794777
-0.0010106333 -0.041560892 -0.01697126 -0.14658453 0.05702864 0.055098068 -0.06357663 0.060422618
0.0032049867 0.06448088 0.05372501 0.08125919 -0.062258106 -0.020184949 0.06892808 -0.029864522
0.056664605 0.0006931864 0.010893101 -0.06887838 0.040915396 0.092241 0.019817626 -0.03300024
0.015957836 -0.02327246 -0.01953183 0.049266018 -0.047048245 -0.02090497 0.0324182 0.003867427
-0.07700263 -0.035957515 -0.062089674 0.009101991 -0.038649887 0.00152183 0.041181207 0.04338816
0.03513023 0.023421854 -0.008533342 0.044339165 -0.033744894 0.057011973 -0.031520694 -0.08689555
0.04467017 0.031614613 0.14164543 0.004068921 -0.025821043 0.03740244 0.17049143 -0.049258728
-0.0020659568 0.011204764 -0.015474791 -0.030004185 0.02730776 -0.03452057 -0.09049859 -0.08008948
-0.07228228 -0.13809772 -0.16818799 -0.17400007 -0.055839974 0.070240095 0.041360166 0.0040288162
0.006620167 -0.004765024 0.039807998 -0.002870938 -0.026056774 -0.016705597 0.0016759047 0.040208608
0.035389964 0.07132932 0.104782805 -0.00036032687 0.07160526 -0.051045272 -0.07554192 -0.07718829
-0.058126263 -0.07071206 -0.06953544 -0.0024460438 -0.0701761 -0.010454427 0.07054999 0.05513592
-0.09215398 0.03609575 0.079568096 0.13373224 -0.05908052 -0.10692863 0.056737926 0.044893652
-0.106337786 -0.14066343 -0.030011453 -0.15821218 0.00093566853 0.04493646 0.04895207 -0.008369415
0.0625249 0.11252047 0.021223368 -0.014676867 0.0019641805 0.11000097 0.023476794 -0.05057682
-0.01645664 -0.0080652675 -0.0164143 0.05208661 0.0050731176 -0.08279576 -0.1054888 0.004024147
-0.030118406 0.087842904 0.06307671 -0.15747476 -0.05885306 0.100682124 0.058854308 -0.0828615
-0.04153762 0.11301032 -0.09445998 0.041183516 0.015084013 0.020760274 0.004766919 -0.013129296
0.0152505385 0.086494096 -0.12183047 -0.1276767 -0.016660273 0.013585316 -0.036903616 -0.017884206
0.020193936 0.093176104 -0.11715614 0.04031053 0.0324466 0.05235409 0.18330556 0.11818458
-0.09256887 -0.10067664 0.11693627 0.13228834 -0.08977509 0.04353701 0.014906314 -0.0066586756
-0.019326003 -0.16278629 0.10081024 -0.07556365 0.043857444 -0.15862063 -0.04052568 -0.056549944
-0.07829413 -0.035226233 0.057519104 0.076954626 -0.0033882128 0.063952915 0.044286754 0.00803306
0.013983603 0.09778214 0.017509462 -0.04779357 -0.02756085 -0.051902905 -0.03312478 0.10375481

fc1.bias f4 [50]
00000000: 5bc1 fdbc 0d22 153c 87ad 793d 2500 153b
00000010: 8f1d 8dbb 3716 143d 6988 a93d 022f 29bd
00000020: 8b62 b93d eca1 e539 02ce 84bc d260 c63c
00000030: 5a1a 8c3c 1220 a53c 4704 943d 031a 8e3d
00000040: cf6a 933c 88f2 26bc 0e20 6cbb 28ba c5bc
00000050: 6dce 063e 2375 113d 8fe7 10bc 35b0 5d3d
00000060: e6ca ef3a e16d 2dbc 0d97 453d 6f9a 203d
00000070: 00f8 3abd bd7a e43c 4730 8e3c 0018 663d
00000080: a55a 05bc 6131 4e3d 077b ecbb 69f9 613c
00000090: 3dae a83d c1e1 bc3c a16f 913d 787e 503d
000000a0: 9756 eb3d e95d b03b 238c ca3c 2f05 153d
000000b0: a1ce 3c3d c5fa 003c 41ff 5b3c ead6 0e3b
000000c0: 2ae1 353c a406 143d
-0.030975988 0.009102357 0.060956504 0.0022735682 -0.004306502 0.036154 0.08277971 -0.041304596
0.09051999 0.00043798925 -0.016211513 0.02421609 0.01710241 0.020156894 0.07227378 0.06938555
0.017995266 -0.01018966 -0.0036029848 -0.024136618 0.13164683 0.0355121 -0.00884427 0.054123122
0.0018294721 -0.010585279 0.048239756 0.03920978 -0.045646667 0.027890557 0.017357005 0.056175232
-0.008139287 0.05034006 -0.0072168144 0.013792374 0.08236358 0.023056867 0.0710137 0.05090186
0.11491125 0.0053822887 0.024725026 0.036381897 0.046095494 0.007872288 0.0134275565 0.002179558
0.011101047 0.036139145

fc2.weight f4 [10, 50]
00000000: 99d9 293c 0f73 123e 7858 f03d 3060 6e3e
00000010: 7004 38be aea4 043e 9b86 85be 292a c3bd
00000020: af24 503e 74c8 98be dc52 553d 5f8e 023e
00000030: 5800 a93e e516 36be 1046 6bbe e9a8 ae3e
00000040: e4f4 8b3e 19e5 b03e ba12 42be 7646 5f3e
00000050: 0e40 84bd 47d2 573e 1dc0 54be b68c c0be
00000060: 87b9 5abe d759 02be 57b4 56be f6b2 2bbe
00000070: 10ca a5be c344 78bd 4a69 8d3e 14fb 13be
00000080: 7004 d5bd 50b7 ad3e 78cc aabe ba5c 9abe
00000090: 9649 613e 9ddb f23d f7fe 32be 733f 8fbe
000000a0: 4cbd 2dbe 851b a8bd a8f5 a53e 27d9 7fbe
000000b0: ac84 10be b0c7 8abe bc85 073e 720e 4ebe
000000c0: db48 943e b310 18be 4765 36be 7589 f0bd
000000d0: 2b54 2abe 62e1 1abe 0a95 f5bd 34b7 863c
000000e0: 1ba6 263e 8f36 00be 141d babd 57a2 f4bd
000000f0: 1492 ce3d 5c5a 3cbe 8a45 5a3d 8651 a9be
00000100: 9f7a c43e 162c 023e dbd7 8ebd 48da 34be
00000110: 5ec1 a5bb 7b85 9c3c 3484 803e fc12 48be
00000120: 962c 9f3e 8cb6 8a3e 4c3e 98bd 5c78 143e
00000130: add9 efbd 2679 7b3e 15de 4fbe f617 b53e
00000140: 769a 8fbe 59db acbe acac 573e 1578 8cbe
00000150: 2cd4 7ebe 6acb 8e3e 09ec 68be a6c0 d3bd
00000160: 4282 42be 83ba 8bbe b5ea c83e f591 6dbe
00000170: 5325 413e 2a91 953e 3127 bf3e 2828 8bbe
00000180: 8fe4 383e 9001 463e 9673 3ebe 4213 013d
00000190: 593f f43e 37d8 cc3e 63e3 4b3e 0391 03bd
000001a0: 3e83 20be ca51 a63d 707f d63d 8fed 55be
000001b0: 4920 9a3e 6f3d 25be 988f 7ebe 375a d7bd
000001c0: 0c6f d9be 4e9d 2abe cb70 4cbe 6ec7 3e3e
000001d0: e6b2 65bc 7bc3 f9bc c617 23be 12a8 dc3e
000001e0: bf00 81be 339b 75bd b043 d83c 317b 1c3e
000001f0: c820 08be 3fc5 9ebe f1b5 843e 6447 d1bd
00000200: c6ba 23bc 2709 04bc 2d9f 5ebe b93b 5dbc
00000210: 1d14 503e 5de4 77bd 4313 9dbe dd10 7d3e
00000220: db3a 6fbe 49d3 363e 9154 02bd 119b b5be
00000230: 4703 c6bd 0ad4 623e c64d 923d e3eb d0bc
00000240: 26d4 c23e 5c30 fb3e 9e7e c33e 47a2 533d
00000250: 94c8 6dbe 689d 013f f694 e3bd 4940 d03d
00000260: 60d1 0ebe 1eff 193e f209 9a3d cb3a 133e
00000270: 8800 483c 4fea cebb cf0e 8f3e 6154 3bbe
00000280: cad2 d33e e562 5abe a599 15be be89 a83e
00000290: b8a7 1d3e 679c 7ebe fb25 00be 0289 adbd
000002a0: 5c92 74be 0054 40be 0cca 0dbe 9043 403e
000002b0: 81e4 1fbe d461 283e 9e10 b6be ed49 5a3e
000002c0: a128 883e 4925 043e f9fa de3e 74e4 1ebe
000002d0: 269b 163e 6659 763d 17ac 0e3e ce44 a7bd
000002e0: b169 093e f297 01be 81e4 c1bd 5a81 91be
000002f0: 0f2e 8abe 6935 a83e 2c87 8cbe 01b0 0d3e
00000300: 6712 343e 7841 7bbe 5567 823e 6158 5ebd
00000310: 05a5 9ebe d92f c3bd 1498 7dbe 44e6 b0bd
00000320: a086 663d 7e25 67bd dd6d bb3e a613 9abe
00000330: a30e 9abd acbb 6abd 926c d0bd dca0 b33e
00000340: 2a33 abbe 9831 ffbc 148a 0dbd 02e6 3abd
00000350: fd6a 6c3d 5c91 4b3e 9158 efbd 8c74 56be
00000360: 2e6d 1fbe 4ca1 6ebe 31be fc3d 969a adbd
00000370: e040 313e 77f1 09be 1d0a 1fbe 5516 9dbd
00000380: 2c25 503e cc4a 8ebc 11f2 9bbe f4df 243e
00000390: f32f a9be 4243 44be 4374 97be c8cb 913e
000003a0: 4b1e d0be 610d 243e f8f9 753e b0bf ac3e
000003b0: 323f 8cbe 1afe b0be 5205 cb3e 0d15 c7bd
000003c0: 312d a33e a0ee 8a3e f8d7 fd3c c795 913e
000003d0: 3c1f 5abe d8a3 0f3e 284f 3f3e 16c8 aa3e
000003e0: 8f10 763e dfc6 29be fdea 62be f0d0 cfbc
000003f0: 2ed6 443d f658 b93e c02c 17be d6fa 40be
0.010366821 0.14301704 0.11735624 0.2327888 -0.17970443 0.12953445 -0.26079258 -0.09529526
0.20326494 -0.29840434 0.052080974 0.12749623 0.33008075 -0.17782171 -0.22975945 0.34113243
0.27335274 0.34549788 -0.18952456 0.21804222 -0.0645753 0.21076308 -0.2077641 -0.37607354
-0.21359836 -0.12729584 -0.20967232 -0.16767487 -0.32380724 -0.06061245 0.27619392 -0.14451247
-0.10401237 0.3392892 -0.33359122 -0.3014887 0.22000727 0.11858294 -0.17480074 -0.27978095
-0.16966742 -0.08208374 0.32413983 -0.24985181 -0.1411311 -0.27105474 0.1323461 -0.20122698
0.28961834 -0.1485012 -0.17812072 -0.11744968 -0.1663367 -0.15125039 -0.119913176 0.01644478
0.16274302 -0.12520812 -0.090875775 -0.11945026 0.10086456 -0.18393844 0.053288974 -0.3307001
0.38374802 0.1271213 -0.06974765 -0.17661393 -0.0050584516 0.019106617 0.25100863 -0.19538492
0.31088704 0.27092397 -0.07433757 0.14499038 -0.1171144 0.24557933 -0.20299561 0.35369843
-0.28047532 -0.337611 0.21061963 -0.27435365 -0.24885625 0.27889568 -0.2274629 -0.10339479
-0.18995002 -0.27290735 0.39241567 -0.2320021 0.18861894 0.29212314 0.37334588 -0.27179074
0.18055938 0.19336534 -0.1859878 0.031512506 0.4770458 0.4000871 0.1991096 -0.032120716
-0.15675065 0.08121069 0.104735255 -0.20891403 0.30102757 -0.16136716 -0.24859464 -0.10515254
-0.42467535 -0.1666157 -0.19964902 0.18630764 -0.0140197035 -0.03048872 -0.15927038 0.43096977
-0.25195882 -0.059962463 0.026399463 0.15281369 -0.13293755 -0.31009862 0.2592006 -0.10218695
-0.009993261 -0.008058823 -0.21740408 -0.0135030085 0.20320173 -0.06052052 -0.30678758 0.24713464
-0.23362295 0.17854036 -0.03181893 -0.3546987 -0.09668594 0.22151199 0.0714374 -0.025503105
0.3805248 0.49060333 0.3818254 0.05166843 -0.23221046 0.5063081 -0.111123964 0.101685114
-0.13947058 0.15038726 0.07521428 0.14377896 0.012207158 -0.006314553 0.27940986 -0.18293907
0.41371757 -0.21326788 -0.14609392 0.3291759 0.15396011 -0.2486435 -0.12514488 -0.08473398
-0.23883957 -0.18782043 -0.13846606 0.18775773 -0.15614511 0.16443568 -0.35559553 0.21317263
0.26593497 0.12904848 0.43550852 -0.15516835 0.14707622 0.06014385 0.13932835 -0.0816742
0.13419224 -0.12655619 -0.09467412 -0.28419 -0.26988265 0.3285325 -0.27446878 0.13836671
0.17585145 -0.24536693 0.2546946 -0.054283503 -0.30985275 -0.095306106 -0.24765044 -0.0863767
0.056280732 -0.05643224 0.36607257 -0.30093116 -0.07522323 -0.057307884 -0.10176958 0.35083663
-0.33437473 -0.031151578 -0.03455551 -0.04562951 0.05771922 0.19879669 -0.116868146 -0.20942897
-0.15568992 -0.23303717 0.12340964 -0.084767506 0.17309904 -0.13471018 -0.15531202 -0.07670275
0.2032668 -0.01736965 -0.3045812 0.16101056 -0.33044395 -0.19166282 -0.29580888 0.28475785
-0.40648112 0.16020729 0.24021137 0.33739996 -0.27391964 -0.34568864 0.39652497 -0.09720812
0.31870416 0.2713518 0.030986771 0.28434584 -0.21300977 0.14027345 0.1868254 0.33355778
0.24029754 -0.1657977 -0.22159953 -0.025368184 0.04805582 0.36200684 -0.14763165 -0.18845686

fc2.bias f4 [10]
00000000: e6c4 8f3c 3129 9b3e 64bd a1bd 33ad b0bd
00000010: 2aac 40be 6d19 b7bd 6a42 aabe 4ef5 77bd
00000020: 1e31 7d3e b25a 813d
0.017549943 0.30304864 -0.078974515 -0.08626785 -0.18815675 -0.089403965 -0.33253795 -0.060536675
0.24725768 0.06316127
